Multimodal/workdir/test/2022-01-10 18_18_48.pth (torch, 34468 bytes, 42 tensors)

pic_block.0.weight f8 [3, 1, 3, 3]
0	0xbfc38ec0b8e49f7b	-0.15279397037488338
1	0x3fdc937ef0a2e383	0.4465024328197204
2	0xbfcc6a45b5eda842	-0.22199317343921804
3	0x3fc8aa2948edf9ec	0.19269290982261056
4	0x3fc013ce1f1ec1a8	0.12560440558946806
5	0xbfeb0ec5d376bb96	-0.845553315177187
6	0x3fcc3a5e79d8e50e	0.22053128194401278
7	0x3fccbaeed73c679c	0.2244547415692154
8	0x3fc1c846637e68b0	0.1389244066056725
9	0x3fcdbf398cd1831c	0.23239821792506
10	0xbfd7ab2045231316	-0.3698197055021394
11	0xbfdb71eea0e38636	-0.42882886611741655
12	0x3fd4206f8cf3ff96	0.31447972073510166
13	0x3fc202f01719b0af	0.14071465614268194
14	0x3fd6efff2ca23d39	0.3583982406498368
15	0x3fcb0c90906e7647	0.21132094433134993
16	0x3fc0031986ad9684	0.1250945956809809
17	0x3fc9d92f19f0a0c8	0.20194042936896595
18	0xbfb7d1e2518e6c6c	-0.09304632655259731
19	0x3fda81b2545f5968	0.41416605224130487
20	0x3fc36fe8bbf301fe	0.1518526952477401
21	0xbfb314f3f1066959	-0.07453846582794678
22	0xbf8caee62bddafaa	-0.014005468572314179
23	0xbfb287c15b308345	-0.07238396145158983
24	0x3fca544853250695	0.20569709834858388
25	0x3fbd665fac515636	0.11484334904647472
26	0xbf8fad4a54fad05c	-0.015467243879676733

pic_block.0.bias f8 [3]
0	0xbfb0002cd842c79b	-0.06250267295652494
1	0x3fd1f30e3283a30a	0.2804599278738783
2	0xbfce79a0afa9254b	-0.2380867822378526

pic_block.1.weight f8 [8, 3, 3, 3]
0	0x3fd0213a7e523531	0.25202810607955245
1	0x3f90379881e3c609	0.015837080886688813
2	0xbfd38214a338993b	-0.30481449069556604
3	0xbfb20fbd475cd380	-0.07055266372920066
4	0x3fcb5720f236ed5c	0.21359645678408412
5	0xbfc7bdbe384b4366	-0.18547799824457484
6	0x3fc210e4e2af39fb	0.14114056652620363
7	0x3f9a25e9263f82ba	0.025535242995718056
8	0xbfb9428325f7c682	-0.09867114712667482
9	0x3fc6535194ae8724	0.17441768417216352
10	0xbfae8e27ef962a9c	-0.05967831420556033
11	0xbfc608c044daf250	-0.1721420608718227
12	0xbfae7794ce824ee0	-0.05950608273374569
13	0x3fc004cb8b7fef92	0.12514633475791165
14	0x3fc992666290debd	0.19978027165210746
15	0xbfc5a8e18a9af15a	-0.16921633975824585
16	0x3fc5da75a82c5e49	0.17072935782992918
17	0x3fd7b6cb7317fa43	0.37053190459838364
18	0x3fb6adc381b96ccb	0.08858892361733976
19	0xbfc7509e19ed5e0e	-0.18214775339105
20	0xbf867c78e184c9a1	-0.010979599363598437
21	0xbf9bdec699a0d06b	-0.027217009665222152
22	0x3fb055a4e8b0d6c7	0.0638068264095991
23	0x3fcfd78188c8830f	0.24876422098989123
24	0x3fc03bbf84ff58b3	0.12682336801544167
25	0xbfb2d53aa78304ad	-0.07356611814158738
26	0xbfb5a0efa22d297c	-0.08448693951974023
27	0xbf9f14ccb80bd984	-0.030352781995099956
28	0x3fc8855463105743	0.19156889760113857
29	0x3fa061de262aa50d	0.031996671828276126
30	0x3fbdf2771314ea48	0.11698097434865773
31	0x3fbfb865356db279	0.12390739969641541
32	0xbfbb2f5eabde1c04	-0.1061915559385938
33	0xbfbfd5d63c87306b	-0.12435664155708685
34	0xbfd2cebe0e6b57b5	-0.29386855514655547
35	0xbf2cd093426b806a	-0.00021983907318823558
36	0x3fd06067dda7e0ce	0.2558841385466736
37	0xbfc710962cce8431	-0.18019368350818035
38	0x3fa86aa590bccbc6	0.04768865005316729
39	0x3fd721d2f168e1ff	0.3614394528881632
40	0xbfce55ee5b23fda5	-0.2369974083921821
41	0x3f8ea247fc82de24	0.01495796431878122
42	0x3f963d46d87652bb	0.021718127214245025
43	0xbfb6eda2d96fa426	-0.08956353958605287
44	0xbfc86ebe04cc283a	-0.19087958559276946
45	0xbfc71063473ec206	-0.1801876161457729
46	0xbfd10b90950a4bcc	-0.26633085779866117
47	0xbf9ada97146d276b	-0.02622448026821848
48	0xbfb4b971ca8c13c5	-0.08095465846061163
49	0xbfc59621d9664dd2	-0.1686441718598944
50	0xbfcb5df7e5e59ff1	-0.21380518651426386
51	0xbfc465c17f8f1858	-0.15935534218278025
52	0xbfcee0421044a940	-0.24121881288858482
53	0x3fcb0d81bcf5421a	0.21134969450442115
54	0xbfc822ddff61ad6d	-0.18856406183054322
55	0x3fa1cbc0d882b44a	0.034757639340889115
56	0xbf67b4522a93328a	-0.0028936009226526215
57	0xbfc392825999400a	-0.15290860533650658
58	0xbfc42649b362fe0e	-0.15741845378032376
59	0x3f88e757f6c104c6	0.012160002916177592
60	0x3fd5f83021ed51a3	0.34327319443880294
61	0x3fd0d25bba396bc0	0.26283925233809313
62	0xbfc80b157332831b	-0.18783825039738464
63	0x3fd313adc0964cef	0.298076093743659
64	0x3fc38fe065a11e54	0.15282826387759718
65	0x3fa88b8037ad873c	0.04793930701886359
66	0x3fad83214e7b2f01	0.057641068296645066
67	0x3fd039f8f581bbcf	0.25353836035986616
68	0xbfaf3717d4ae7ec3	-0.06096720191203311
69	0x3fb64309d1c1c68c	0.08696042414683286
70	0xbfce56b83d6e3499	-0.23702147483382843
71	0xbfc243081af5159b	-0.1426706439616908
72	0xbfbfac43201b2069	-0.12372226270520205
73	0x3fc6415e6d5126bc	0.17386989915603646
74	0x3fca5ea436e2ed9e	0.20601322822572582
75	0xbfa7a605c3406902	-0.04618852623407756
76	0x3fc7a58d20629baa	0.18473972398097988
77	0xbfad308f4e84380c	-0.05701110681012275
78	0xbf73886b542e2989	-0.0047687714130780845
79	0x3fbe4e626f4bf8ad	0.11838355271536001
80	0x3fbbeff3c1606ea1	0.10913012953863667
81	0xbfdb0022ddab0bdd	-0.4218833126762414
82	0xbfc0b998546b4d71	-0.13066391107586697
83	0x3fca0a7b1e7a2a8d	0.20344485271592241
84	0xbfbe0828d926a049	-0.11731200505767093
85	0xbfb74afdda39ff38	-0.09098803117558141
86	0xbfc9ec41198db077	-0.20252240894058435
87	0xbfa53a52f8a3fb4e	-0.04146060261881833
88	0xbfbabd630f087375	-0.10445231549279106
89	0x3f9a86b699b8d0f4	0.025904515392725494
90	0xbfac35a23a7a5fb8	-0.05509669269412093
91	0xbfb5bc864bfe9a5e	-0.08490790706000825
92	0x3faabaf0eb1fa006	0.0522074973121676
93	0xbfc3e710a9ae6cba	-0.15548904690954207
94	0x3fc07d27cb4f14be	0.12881944110100635
95	0xbfb0b4354442e5c6	-0.06524975697074983
96	0x3f9c26f89970e427	0.027492412915510436
97	0xbfd3693108849e81	-0.30329538184967225
98	0xbfa16b21697820eb	-0.03402046596971949
99	0x3fcda3e7e187cc88	0.23156450760106773
100	0xbfb0645d607d0a3e	-0.06403144460367913
101	0xbf90bc09c9bb4aa1	-0.01634230893871325
102	0xbfbdd0b4dc2c9381	-0.11646585822434298
103	0xbfc39dfdf3429b77	-0.1532590329927321
104	0x3fadc1f46ce791ea	0.05812038258935444
105	0x3fb4021985c7e9d5	0.07815703884254017
106	0xbfb82296eb64ec33	-0.09427779433183119
107	0x3fc1f075d9893802	0.1401507675349763
108	0x3f94dc7d0f3ba8c1	0.020372346930266575
109	0x3f9ea3ea590523ab	0.029922162707666605
110	0xbfcef84f8e1da4ab	-0.24195284308669804
111	0x3fb47fde5b4770da	0.08007611969464126
112	0x3fd1589c3f6d27f7	0.27103334611876967
113	0xbfb36089064b19ca	-0.07569176105162181
114	0xbfbf43b1fc839cc0	-0.12212669768233564
115	0xbfc5b22b419e798d	-0.16949978546194835
116	0x3f91fa87c6ed9c5d	0.01755726005231072
117	0x3fb51016043bc650	0.08227670291287237
118	0xbfa4d24b309a9d95	-0.04066691368398804
119	0xbfc209b7c0bcff87	-0.1409215632538656
120	0xbfd2ba4cf355eb45	-0.29262088549846893
121	0xbfc12b48944612a1	-0.1341334079735548
122	0xbf9aaaf5d1db8902	-0.026042786534966396
123	0x3fd0932ea6efbf77	0.25898329069513387
124	0x3fb6f28f3f8eee56	0.08963866521565342
125	0xbfd1d7346d495b04	-0.2787600581408898
126	0xbfc5ee457f70dca4	-0.17133396837900705
127	0xbfa20e54127cff8d	-0.03526556707083648
128	0xbfa735ff986aa0b3	-0.04533385024598271
129	0x3fc5a23e52c08e88	0.16901377716668642
130	0x3fc8702d770fed35	0.19092338861069327
131	0x3fb970dea0a7fd3d	0.09937850401182842
132	0x3f8946d0819db60f	0.012342099147384848
133	0xbfcb8c5778e5c8f9	-0.21522038844302196
134	0x3fcc43e77b8b3f2f	0.22082227260988804
135	0x3f98a81a1cbaf13d	0.024078758243136312
136	0x3fc7a6e1790818f0	0.1847802964186438
137	0x3fd2e8b7acf77dbf	0.29545394793782614
138	0x3fb7372f005ad15b	0.09068578489934025
139	0xbf9bee8765a7c469	-0.027277103023099523
140	0x3fc492328523bfc0	0.16071158886870585
141	0xbfafd5e6ba887cad	-0.06217881228462239
142	0xbfc934258d6aa5a1	-0.19690389065844463
143	0xbf9fa8ceefc173a3	-0.030917390235447716
144	0xbfc6fb46583c390a	-0.1795432978473815
145	0x3fb02d6005ddbb28	0.0631923689195274
146	0xbfc6e5d21236eb34	-0.17888856782323048
147	0x3fa3a2d42cf2d4fa	0.03835166023911003
148	0x3fb2f682387c1307	0.07407392386455679
149	0x3fc348e5566df071	0.15066210479915612
150	0xbf9eb7051a146e46	-0.029995040623459944
151	0xbfae9903c5b97c78	-0.059761159788416174
152	0xbfd00f70e82ffa22	-0.2509424464659863
153	0xbfb581d425ebfc8d	-0.0840122788031172
154	0x3fd9bbf24e43fd8d	0.40209634440540115
155	0x3fb7700f0cb7bf01	0.09155363140575547
156	0x3fc4c6b01c839a90	0.16231347458161283
157	0x3fd507ba11245ab7	0.32859660791420303
158	0xbfc28b45eaaf42b9	-0.14487527808389247
159	0x3fb48d81f24afcde	0.08028423467020526
160	0x3f71ece9d54f6d71	0.004376328860384291
161	0x3fce296241dceb36	0.2356379338833336
162	0xbf9fdc2d803e5d5a	-0.0311133489154519
163	0x3fcbfee509e0568c	0.2187162683700773
164	0xbfa4af17f66779e6	-0.04039835818160835
165	0xbfc3d24e9a72f021	-0.15485556165174422
166	0xbfb562cde69dcdd6	-0.08353888397487394
167	0x3fa4b155e57df5a7	0.04041546274582269
168	0x3fabe0b0535e286a	0.05444861428902999
169	0x3fad384ed5a73eab	0.05707022054741392
170	0x3fdafa843710655d	0.42154031159733113
171	0xbfb14e9396fe1ff7	-0.06760523258537875
172	0xbfc2d0aab756157f	-0.14699300720182504
173	0xbfd90d0dafa08e49	-0.3914217200383275
174	0xbfc160f04f07400b	-0.13577083452992186
175	0x3fcc0e7770db84fb	0.21919148455257428
176	0x3fc473379dfdd20e	0.15976615156581925
177	0xbfae0cf4940ce6ee	-0.05869259173637241
178	0xbfc89180079a6647	-0.1919403111576676
179	0xbfb06b462ddec04f	-0.06413687343479178
180	0x3fd6342c22f3f9e9	0.3469343510950283
181	0x3fb44cc44ccfb7eb	0.0792963683631737
182	0x3fdcf1bceb026fc3	0.4522545142187903
183	0x3fc5600986ec2536	0.16699332321176436
184	0x3fa7697887ca2152	0.045726553512454374
185	0xbfc0701dfd9c30fd	-0.1284215439158131
186	0x3fc7b490507bce1d	0.18519786767829852
187	0xbfb81029886eebd4	-0.09399661618128557
188	0xbfba3d12d0c770eb	-0.10249440762658295
189	0x3fbb040b9ac2b5d8	0.10553047684034966
190	0xbfbe2fa63c18c1f0	-0.11791457144932571
191	0x3fc77ada40d646ff	0.18343666234846265
192	0xbfc4437ef9c06f2f	-0.1583098144045549
193	0x3fc0f3a4977afd83	0.13243539234643373
194	0xbfca9047df9f5bd4	-0.20752809924189697
195	0x3f84d8465aa9d952	0.010178136483983611
196	0xbfc96ccbf0734ef2	-0.19863270989173248
197	0xbfad381d7881456b	-0.05706874938972358
198	0xbfe187da774ea2e5	-0.5478336649149155
199	0xbfd269795f99994b	-0.28768762908875506
200	0x3fbeefd97315a5e3	0.12084731158906652
201	0xbfa7c024ea5e90a8	-0.04638781891779448
202	0x3fcc0b52d05cf055	0.2190955655477206
203	0x3fbb857cd035388e	0.10750560839844267
204	0xbfa52be448373ec2	-0.0413504923013739
205	0x3fcd0c664b88d9f0	0.22694090545856183
206	0xbfb54aa200c96c11	-0.08317005652627098
207	0xbfb93d5fe82cc6f7	-0.09859275263150012
208	0xbf728b77a21e7fcc	-0.004527537648669932
209	0xbfb47322bc4080e5	-0.07988183113093646
210	0x3fc77bb682d852e8	0.1834629191295314
211	0x3fa77cbe855e6c5d	0.04587359788930521
212	0x3fa9399f112cb120	0.049267741056924885
213	0x3fb9d64b7f6fb3f1	0.10092613087881809
214	0x3fb8ebf1facd14e0	0.09735023854325986
215	0x3f98af683ff4f1f1	0.024106625465025237

pic_block.1.bias f8 [8]
0	0xbfba522e60491007	-0.10281648493497651
1	0x3fadb45443c4029a	0.05801642729966723
2	0x3fb02efc644eb641	0.06321694802201085
3	0xbf4b9d2db2c1c2f7	-0.0008427117477492742
4	0xbfba67b1c4b012dd	-0.10314475109050698
5	0xbfb848ffc56b167f	-0.09486387796195038
6	0xbf922c2aa7744532	-0.01774660727557382
7	0x3fb468e8e9be7763	0.079725796762856

pic_block.2.weight f8 [4, 8, 3, 3]
0	0x3fca30ef94ff49e3	0.20461840415244045
1	0x3fb1ec1bfed5e394	0.07000899287767332
2	0xbfc0f818b70f40c8	-0.13257130564170994
3	0xbfba4e2d24172369	-0.10275537615883724
4	0xbfbb4f83ae5bf143	-0.10668204314055622
5	0x3fc88d93cc68aa42	0.19182059746647623
6	0xbfd16731279681d9	-0.27192334047324845
7	0x3fbd8a846ff9a59f	0.11539485677498938
8	0x3fa947491a67b37a	0.04937199065520921
9	0xbf7c154e00f893f3	-0.0068562552474178305
10	0x3fa9699c6f49f85d	0.04963387354381219
11	0xbfd1ec5eaf0dd8bc	-0.2800518712532598
12	0x3fada37ce8144f96	0.05788793881416081
13	0x3fd40d720d726eb8	0.31332064927276404
14	0xbfb12506f514df69	-0.06697123988567245
15	0x3fd262180129e443	0.28723716844212194
16	0x3fe02aa2f9659161	0.5052046652822747
17	0x3fd1245ed9120620	0.2678448791340049
18	0xbfcbf62d75109b65	-0.21845024314935838
19	0xbfd202aed6b147b8	-0.2814137550932361
20	0x3fc1795133e35984	0.1365148070678509
21	0xbfc81853e6e26f08	-0.18824242376000933
22	0x3fd6f90b44dba7c0	0.3589504406396564
23	0x3fa97820f02c2d3a	0.04974463397783287
24	0xbfc6a604e94025d6	-0.1769415034216723
25	0xbf9f04d6895192d8	-0.03029189313055522
26	0xbfc00748094f84e9	-0.1252222104513188
27	0x3fb000c358589b7e	0.0625116434754158
28	0xbfa527a86e2f6cc7	-0.04131819100413164
29	0xbfab84b3626237f4	-0.05374680114719857
30	0x3fa58823982e974d	0.04205428345384963
31	0x3fa5c644cd9f6423	0.042528295612733545
32	0xbfc15bfd1f49bf94	-0.13561977412927873
33	0x3fadb198e59b02b6	0.05799558451463353
34	0x3fe358fa327382c2	0.6046114907622597
35	0xbfc25bfe01d9d81a	-0.14343237963083838
36	0xbfc14bde299437ea	-0.13512780218337578
37	0xbfd4145e7d43df54	-0.31374323113367564
38	0x3fc03703dabbd70e	0.12667892628058336
39	0xbf9c505de0df05bc	-0.027650324678466495
40	0x3fa97da91808831f	0.04978683870672839
41	0x3fa662a8f0d8c3f4	0.04372146549247438
42	0x3fbd7d80e84ced4d	0.11519628211401774
43	0x3fb9f7f137fb4954	0.10143954865205745
44	0xbfb9c4163862fa8a	-0.10064829708697168
45	0x3fb27875270bf1f9	0.07215053752219792
46	0x3fd11e1814d55e40	0.2674617961360788
47	0xbfc73d238c982900	-0.1815533100601172
48	0xbfe313f4a0175eab	-0.5961859823973631
49	0xbfbbd7be1c1bbe9c	-0.10876072107543638
50	0xbfc1cf72c90bbe0c	-0.13914332215016179
51	0xbfc33f1cff603806	-0.15036356420063174
52	0x3fd4cb62f995f940	0.32491373418442393
53	0x3fbb7a4a4afeb898	0.10733475047047347
54	0x3fc0580845901cb5	0.12768653294208368
55	0x3fdf817320f1caf6	0.4922759839748062
56	0x3f9d8ad6c51d0cd7	0.028849941044666174
57	0x3fbe626bed0c6c78	0.11868929421727781
58	0x3fc1746104d49d7a	0.13636410461297627
59	0x3fd16ed99e65dc80	0.2723907515387012
60	0xbfd326a0e1431e71	-0.2992326927019127
61	0xbf58c8d8a4e1c769	-0.0015127292313334656
62	0xbfc94ad5a227fec5	-0.1975962678698037
63	0xbfdab87cfa453802	-0.4175102657362687
64	0xbfe5f88836944bd6	-0.6865883890153508
65	0x3fe111a05fbb7c0b	0.5334016675732313
66	0xbfd26701b684f576	-0.2875370294967391
67	0x3f7611db10950499	0.005388122293255603
68	0xbfd36079123a3d13	-0.3027632406237483
69	0xbfc00650dc0e6035	-0.12519274468354671
70	0x3fbe53baff13aaf9	0.11846512534581767
71	0xbfd6e7ee9d3f7655	-0.35790601116409465
72	0x3fd8ee5dba733688	0.3895487137604978
73	0xbfcfc65e3a456997	-0.24824121327658297
74	0xbfdbed220e180fd9	-0.4363484513889922
75	0xbfbd3a3cea0a5505	-0.11416989053607914
76	0xbf9375d602a8fadd	-0.01900419608341052
77	0xbfc46ea48f05296e	-0.15962655051618974
78	0xbfa5ef3c209d4ee5	-0.04284084222913779
79	0x3fd1ddb3b8812901	0.2791566182901449
80	0x3fbb4490759ccb23	0.10651495810888582
81	0xbfb8e7e0fe705fd4	-0.09728819095505453
82	0xbfc11fd6f1a7b721	-0.13378416823928155
83	0xbfda7653d51fc7ed	-0.4134721356668923
84	0xbfc5a1534ed2adac	-0.1689857611539599
85	0x3fd28294c6a62b84	0.2892200412685997
86	0x3fa6ec614f3f1ada	0.04477218716015381
87	0xbfc5f5aa2679f8a3	-0.17155959013684194
88	0x3fc2f00e5658ebe4	0.1479509278886716
89	0x3fc6ece307b7c796	0.17910421254015024
90	0x3f96deaf2a8809fb	0.022333847971831116
91	0xbfc93eefe354b4a1	-0.1972331867231434
92	0xbfdb4969d655abef	-0.42635579997175815
93	0xbfd2c1007a454bac	-0.2930298990297
94	0x3fcc9d14023de98b	0.22354364499535637
95	0xbfc68f86f3e344d5	-0.1762551012857673
96	0xbfc042cf1f7be834	-0.12703885114007252
97	0xbfc1c03b12504127	-0.13867891687596876
98	0x3fc84fe064b82118	0.1899376384537923
99	0xbfe05b22915379b1	-0.5111248815917887
100	0xbfc55691dbfcfec6	-0.1667043995057524
101	0xbfcb68f44229c78d	-0.2141404460012918
102	0x3fe4785d1f063166	0.6396928411427723
103	0x3fdcfd5d8431132d	0.45296419057221976
104	0x3fe202572c302a3d	0.5627857077645967
105	0x3fcc9f924d79ab63	0.22361973555538403
106	0x3fad58bb587692bb	0.05731759505150565
107	0xbfdedcec00cef6cd	-0.48223400191259885
108	0xbfcb7ea816b1586e	-0.2148027525715323
109	0xbfd72dcece40ee6a	-0.362170888347214
110	0xbfbd09f5e3623438	-0.11343323518140458
111	0x3fc45523450148f2	0.1588481985987254
112	0xbfade3e99786489a	-0.05837945913948879
113	0xbfd3194df1a7668e	-0.29841946219458115
114	0xbfc5d87bb8e8ab9a	-0.17066904572251645
115	0x3fda8fd916d3264f	0.4150297854326696
116	0x3fd30b025bbca70a	0.2975469489925763
117	0x3fc736f0c9a7f41e	0.18136415335166672
118	0xbfd16d68e3bfbf09	-0.2723028396712697
119	0x3fd410b632eaaa32	0.3135200021012309
120	0xbfbe1e8494cb49a5	-0.11765316612880967
121	0xbfc34c00325366e2	-0.1507568593722715
122	0xbfc838f20aa69bd4	-0.18923783798274363
123	0xbf52bf66993d04f7	-0.0011442663134889044
124	0x3f86b88c94d30dde	0.011094187061082058
125	0x3fc8f25d4ac7dfff	0.19489637519268396
126	0xbfc5493e5a2e9935	-0.16629771617335512
127	0xbfd6f25c7603b8da	-0.358542552231382
128	0xbfe19ab5952e635f	-0.5501354135222803
129	0xbfb56993811aeaf6	-0.08364221479397912
130	0x3fca8855c374f5e7	0.20728561443131285
131	0x3fa9a2bc023d453b	0.0500696900113646
132	0xbfc6347060d78eb7	-0.17347531059851004
133	0x3fc51abb7c8bd8ce	0.16487830716477564
134	0xbfa64ea67549b55a	-0.04356880361306521
135	0x3fd49dce858037a7	0.3221317580908995
136	0x3fc3ff9802edd2ae	0.15623760359780675
137	0xbfb4b31160f7b2ca	-0.08085735909817085
138	0x3fbd9e1c9f3daf94	0.11569384467810401
139	0xbfbef80cc6f164a9	-0.12097244126325059
140	0xbfc3bea9221ef3a8	-0.15425600210246881
141	0x3fb27ac061507185	0.07218553901515719
142	0xbfc506750b822b01	-0.16425955831467579
143	0xbfc2f62fac8125d8	-0.14813800738401883
144	0x3fc80a1becafe44a	0.1878085046480769
145	0x3fcd586f1c4d418c	0.2292612922851841
146	0xbfcaf81dffe2c5c6	-0.2106969356005221
147	0x3fc34319fc3b1e4d	0.15048527542079385
148	0x3f8f198175991961	0.015185367013270836
149	0x3fdc969b0976246b	0.44669223712896294
150	0xbfd3bd430fca77d0	-0.3084266332824628
151	0xbfd4a6a6af186b57	-0.3226715764919183
152	0x3fc6764eba9e3c94	0.17548545944416516
153	0xbfe3597eb81f88a9	-0.6046746822505799
154	0x3fd1a6e6b7580a77	0.27581184296301536
155	0xbfc218aead16e7c4	-0.1413782448924491
156	0xbfc91c17d67f8cbd	-0.1961698338846868
157	0x3fb003a1b45d1dbd	0.06255541470920085
158	0x3fdb536d6578d0f7	0.42696700009697913
159	0x3fe86f7287852707	0.7636044165494419
160	0x3fe1b37b35525688	0.5531593362272398
161	0xbfa66d60a5aa9cf0	-0.0438032343129694
162	0x3fc75301e6dbeb8e	0.18222068569579303
163	0xbfd227003ba51e97	-0.2836304266424831
164	0x3fd29f359ab93659	0.2909673701259173
165	0xbfbc459c53538aa3	-0.11043717417082148
166	0x3f97ab970807a09d	0.023115501275157702
167	0xbf9cb642e91b1771	-0.028039021947527446
168	0xbfd64b65c4aa0432	-0.3483519001529799
169	0x3fa25517386d46a7	0.035805440557522154
170	0x3facd10756a8b8e2	0.056282262161731614
171	0xbfd68014b676afe8	-0.3515674383040719
172	0x3fd156464dbd5194	0.27089078513861264
173	0xbfa69ce1d576c85b	-0.04416566591989187
174	0xbf91d955d846f5b5	-0.01743063099433125
175	0xbfbe169ff250a036	-0.11753272691623881
176	0x3fc9473ca6670d3f	0.19748647809147177
177	0xbfc22df23668e664	-0.14202716500021773
178	0xbfc2ce0acb4a20a9	-0.1469129078507241
179	0x3fc8a96791cc9cf4	0.19266981715302445
180	0xbfc0479905aac737	-0.1271849897071264
181	0xbfa49ea35294d47b	-0.04027281172822313
182	0x3fdf7aa89768a02e	0.4918614843941239
183	0xbfb87ea11fa21bff	-0.0956822111348714
184	0xbfa8080f6fb32ba5	-0.04693649519466384
185	0xbfd63d9a271e0055	-0.34750989742315613
186	0xbfd0f5128fe77248	-0.26495803883679914
187	0xbfe0b79dc10036bf	-0.5224140901134077
188	0x3fd1f23430da51ed	0.2804079510763405
189	0xbfadcf8c84265fa8	-0.05822409737737583
190	0x3fc9d481a4ce2638	0.20179768130428655
191	0x3f96a419f346b124	0.022110372041127438
192	0x3fd02a5868e742dd	0.252584555096332
193	0x3fd2ff9d14c07b92	0.2968514158873684
194	0xbfdbd301627113ad	-0.43475374806831263
195	0xbfd0bcac2e8e2c44	-0.26151566072866594
196	0x3fcf3c6a2501b197	0.24403120810474085
197	0x3fdf3bdd9dd8567c	0.4880289117294081
198	0xbfca08199e9d4cfb	-0.20337219471785048
199	0x3fd31868ac1b1054	0.29836479956816686
200	0x3fc19dea3d80b2cd	0.1376316833788195
201	0x3f8dbbe73ee22d37	0.01451855335860462
202	0xbfc6b8e76d0d7fcd	-0.1775178225025215
203	0xbf9ab936c70a4c2f	-0.026097160242511016
204	0x3fac71a1a682a83e	0.055554439140295106
205	0x3fce1d20ca939523	0.23526391879492178
206	0xbfd7f78d17a8efb2	-0.37448432264840925
207	0xbfba0cc5ad120f82	-0.1017573878798981
208	0x3f88ad1073ab487e	0.012048843889179258
209	0xbfd03ffa445050cd	-0.253904883110647
210	0xbfddcb3dcbfc9c77	-0.465529870229552
211	0x3fd85032b74e789a	0.37989490414646243
212	0x3fd772f34fec3354	0.3663910179609975
213	0xbfd829d3d56faddc	-0.37755294650443516
214	0xbfd5e8fc824aa067	-0.3423453590753582
215	0x3fd45e9f114e733d	0.3182752293594609
216	0x3fc9c000e73753ed	0.2011719826683981
217	0x3fca3c0513cf7144	0.20495665995884782
218	0xbfd530548bec0fe2	-0.3310748449732711
219	0xbfe07a3dcf8b8805	-0.5149220517744203
220	0x3fc97e8b23094db7	0.19917430125006572
221	0xbfc02470296d7dd2	-0.12611200354420632
222	0x3fcb28682acb4765	0.21217062081864949
223	0x3fd084067da77142	0.2580581881609484
224	0xbfda906495b394ba	-0.4150630437782855
225	0xbf811886664c0ffa	-0.008347558972225489
226	0x3f96ab7af02311c2	0.022138520151899994
227	0xbfb492fde1f4fd4f	-0.08036791578796464
228	0x3fd3d86c5b453c44	0.3100844279587742
229	0x3fcf1d44157968f5	0.24308062599704497
230	0xbfd200f6658bd89e	-0.2813087455427964
231	0xbfd681417da322ba	-0.35163914937269747
232	0x3fda5d4c45b9abf7	0.4119444542799892
233	0x3fd2afda69cc465d	0.2919832261260121
234	0x3fd012317cd64212	0.2511104315863416
235	0xbf93c913e92872ca	-0.0193217383440352
236	0x3fc7f7402e92c8e7	0.18723299287882542
237	0x3fc0185ff8371b17	0.12574386234174348
238	0x3fc8b15499d94f5d	0.19291169654990883
239	0x3fae458477f302c2	0.05912412609314323
240	0x3fe0e607569784fa	0.5280796710250393
241	0xbfbbbe8f3ce2c3dc	-0.10837645756215813
242	0x3fa6270651daf3cd	0.043266484729862144
243	0xbfc8087c3c2d82eb	-0.1877589505993663
244	0xbfd0cc1e2fa010c8	-0.26245836878684914
245	0x3fb60b3893f8004d	0.0861087189914553
246	0xbfb61a8a4f7e455d	-0.08634247246506761
247	0x3fc943ebaa94789f	0.19738527134990577
248	0xbfb437ade7eae6f5	-0.07897459899950461
249	0xbfbc4f9b56d5d284	-0.11058970327378331
250	0x3fc12245102844d2	0.13385833062105817
251	0x3fcb0970f34c740a	0.2112256229383152
252	0x3fd945f2f6b1e30d	0.39489435282989477
253	0x3fe0fe5f7972f11d	0.5310513851214044
254	0x3fcf6f4eaef6783a	0.2455843309698496
255	0x3fab022f75dff76b	0.05275104822065554

pic_block.2.bias f8 [4]
0	0xbf94ed8dbbcf9cea	-0.020437445247719767
1	0x3fb97177d2de3f67	0.09938763521335901
2	0xbf71a64855585243	-0.004308970024358208
3	0xbfb2d622f230d12f	-0.07357996380671204

pic_block.3.weight f8 [1, 4, 2, 2]
0	0x3feba700dafc18cc	0.8641361500783886
1	0x3fc1bb095ef85a6a	0.13852040421689377
2	0x3f8fc2914d94c926	0.015507826976862104
3	0xbfc3ea232ea088cf	-0.15558280731881388
4	0x3fe853f02303a276	0.7602463420744943
5	0xbfd2669d088f3c3c	-0.2875130256260865
6	0x3fe0ae3f9198f097	0.521270546312297
7	0xbfc5a75258c24ddd	-0.16916875204024864
8	0xbfe8dd9b9dca5c01	-0.7770517427296683
9	0xbfbd90099af74a99	-0.11547908814763232
10	0x3fa861b808159a0c	0.0476205358379965
11	0xbff2bab85821ee26	-1.1705859606435154
12	0xbfe8a3dd3c361f11	-0.7700029541019565
13	0x3fc257c2353a4470	0.14330318068508374
14	0x3faa19c899afd8ff	0.05097796321926928
15	0xbfb73eddbcf8006e	-0.09080301154608758

pic_block.3.bias f8 [1]
0	0xbfc381d62470ce7d	-0.1523997953350892

att1.linear_q.weight f8 [16, 16]
0	0x3fb00bcb72064f8d	0.06267997297100987
1	0x3fdc234f4e5bf1f7	0.43965513851415444
2	0xbfc2da97510a140f	-0.14729587037086886
3	0x3fc4e0390ce464a3	0.1630927384328845
4	0x3fa03ffd45281254	0.031738199893912494
5	0xbf895330362603a4	-0.012365700390320651
6	0x3fb2ccc1f87ede5a	0.07343685452257756
7	0xbfd11b35bf5460aa	-0.26728576359301803
8	0x3fc49e4338453c45	0.1610797905691205
9	0x3fd9b12448788c74	0.40143687321887644
10	0xbfd2b2d60dc911ec	-0.29216529222710963
11	0xbfc39c9dbd37f31a	-0.15321704615771453
12	0x3fc32de5598cc374	0.149838131642834
13	0xbfcd24900067a67f	-0.22767829913873425
14	0xbfd038c3e4a9e74a	-0.25346467333257705
15	0x3fb9fc65c960a67f	0.1015075317997347
16	0xbfd22aa9afeb30b2	-0.28385393313943574
17	0xbfac512643f5d370	-0.055306621356897234
18	0x3fcc8489cc4f8936	0.22279474712474617
19	0xbfd4759328073b1b	-0.3196761980915867
20	0xbfae3d89d6de9b73	-0.05906325099868228
21	0xbfd16843443a1a55	-0.27198869383611185
22	0x3fd5ba1d3c806963	0.33948450954780734
23	0xbfc3d29e1accef6d	-0.15486503895396755
24	0x3fe13d7c7d21f1c6	0.5387556499477391
25	0x3fd873c5c30910d7	0.3820661930697162
26	0xbfbda2e13df31838	-0.11576659929696198
27	0xbfd16e5f32343150	-0.27236156370851905
28	0xbfc1a009f45bef48	-0.1376964991721883
29	0x3fe011f15d030332	0.5021902863155445
30	0xbfcc0b3fe1c5b926	-0.21909330867806281
31	0x3f9a8c9b08b83f4d	0.025926992804726812
32	0xbfb2aadbf33ff46b	-0.07291960419384373
33	0x3fb8f2917b73dc7e	0.09745129837016184
34	0xbfcd76360c2edc83	-0.23017001719356153
35	0xbfafad4c1a5768ae	-0.06186902829695505
36	0xbfdd56757a15750d	-0.45840203211066993
37	0x3fd7834bed2f33ea	0.36738870775735555
38	0xbfb23b02757708f0	-0.07121291511342398
39	0xbfae09c483623084	-0.05866827110102782
40	0x3f9d7e41436f09e7	0.028801936856106904
41	0x3fa7e9c440d3c6a6	0.0467053727278544
42	0xbfb15a976a39dabf	-0.06778856604965265
43	0xbfbbf4a9d5d64e0d	-0.1092020175040533
44	0x3fa900894dc0d7f6	0.04883221696984201
45	0xbfb353dcdfca7e03	-0.07549839461943723
46	0xbfd36714b36a900d	-0.3031665565597457
47	0xbfdfd9f36ebc40e8	-0.4976776677513173
48	0xbfdb0c9cbe51cb1c	-0.42264479242219166
49	0x3fd8db5635e36028	0.38838725340383684
50	0x3fa8c83b253802c6	0.04840264157610856
51	0xbfdfc99f4b4aa6a9	-0.49668104508109906
52	0x3fb0519d466ce860	0.06374533624048828
53	0x3fa1c50916385eff	0.03470638653032942
54	0x3fc2a13f1253f67f	0.14554584879799745
55	0xbfd97201d1a59832	-0.3975834414799265
56	0x3fd4aeca5e506509	0.32316836557727463
57	0x3fbdf5e17141a44f	0.11703309073495059
58	0xbf92004635fdc6ed	-0.01757917122399182
59	0x3fc4c922a320c488	0.16238816228136366
60	0x3fc72da8e6a74b0b	0.18108092558267005
61	0xbfaddb0931f34eeb	-0.0583117364382398
62	0x3fcc1a39dcbf8dc8	0.219550354754672
63	0x3fc0ecc8cf006935	0.13222608668804417
64	0x3fcaa958563550a0	0.2082930012644555
65	0x3fa34a5a7581e5ae	0.03767664608399045
66	0x3fb87372b13ee40a	0.09551159693991465
67	0x3fd213f303d54470	0.28246760725330144
68	0xbfc44297ae447da0	-0.15828224190862006
69	0xbfc1d4462fc5bcaa	-0.1392905934585305
70	0xbfc8d4e9928341af	-0.1939975705522676
71	0x3fcd2539044bf7fe	0.22769844732096084
72	0xbfb5376c28b66316	-0.08287693017917905
73	0xbfc1e59047b13fb5	-0.1398182249126855
74	0xbfb4e330b080c2da	-0.08159164723543758
75	0xbfd38bf8744ffd46	-0.3054181228507854
76	0x3f7d5e487281c42b	0.007169993397938372
77	0xbfd6e2d07d6c1f2d	-0.3575936531856197
78	0x3fdbfee90c1055f7	0.43743349245173085
79	0xbfa13473acae6110	-0.033603300885433396
80	0x3fa9af590dc790fc	0.050165923053812705
81	0x3fc881815a920a1c	0.1914521877516372
82	0x3f9eb88b5afe1a00	0.030000855854746433
83	0xbfdc863ad697f160	-0.4456927390708838
84	0x3f92f61224a97bcc	0.018516810882257137
85	0x3fbacbdfefe9d825	0.10467338187467641
86	0xbfbf95baa1900314	-0.12337843365095252
87	0x3fd5a343c3d54b45	0.338089886897411
88	0xbfc114efe70bc674	-0.13345145017187898
89	0xbfc867afd3fa9c60	-0.19066427088293647
90	0xbf9042cfb7c3142f	-0.015879865256256117
91	0xbfcf3fb646cc5ae6	-0.24413183648058306
92	0x3fca2459159ac5d0	0.20423425249968696
93	0x3fd3ea2cf33fc676	0.31116794352337906
94	0x3fd4a5630c10aa85	0.32259441545708284
95	0xbfd3687e190dc4d5	-0.30325272032412204
96	0xbfd0883b6e1f5912	-0.2583149505056933
97	0xbfd1d0f0cdef8ace	-0.27837772475156164
98	0x3fc1634fb92f8949	0.13584324400205564
99	0xbfad7f84d427f5cf	-0.057613516710243944
100	0xbfc0111569856ef7	-0.12552135136035478
101	0xbfcb7e054acc7dd6	-0.21478334572110097
102	0x3fcb950af68403d4	0.215485926026331
103	0x3fa2697490c9fdba	0.03596081035083949
104	0xbfd6aa0b4992443d	-0.3541286676855327
105	0x3fc702448fd3ae1a	0.17975670836254737
106	0xbfb91e6148dd23ef	-0.09811981228735055
107	0xbfb4defdc80260db	-0.081527577715295
108	0xbfd09979f96415f4	-0.2593674598177522
109	0xbfa62094b7b25faf	-0.04321732275383227
110	0x3fb849e15800aea8	0.09487732313635411
111	0x3fc7fb5a7e548747	0.18735819977251308
112	0x3fcd703c9465e67d	0.22998769041059922
113	0xbfdebe1858c3568d	-0.48035248440042083
114	0x3fc9efbdd9ea0372	0.20262883320176744
115	0x3fc844e5a5025c03	0.1896025710782113
116	0x3fa34852a785b77e	0.03766115469885188
117	0x3fc870c0440a697a	0.19094088861750064
118	0xbfcaf91f055ee55c	-0.2107275749420222
119	0x3fccaf1e7868fafc	0.22409420852087425
120	0xbfcb59c13a54693d	-0.21367659900790584
121	0xbf83df4852e1b110	-0.009703221349092434
122	0x3fc9a02f734b4ffa	0.2002009690246494
123	0xbf8385c265aa5ff3	-0.009532469489656114
124	0x3fbaa0d60c4aed05	0.10401666450609433
125	0x3fc619f73327ca56	0.17266740796874797
126	0xbfae77ab3a6158a6	-0.059506750942703676
127	0xbfc28aa96c57459c	-0.1448566226013498
128	0x3fd3266cf1a71403	0.2992203102006103
129	0x3fdc182a7d5a7ae0	0.43897497407480834
130	0x3fc4ce96ee0901eb	0.16255461333095353
131	0xbfca47c600aeac34	-0.2053153518039338
132	0xbfbf06ddb405dbb3	-0.12119851727571422
133	0xbf915986f2364da1	-0.01694308141084167
134	0xbfb84b53b546f921	-0.09489939857210007
135	0x3fdc9b6bc85b4db3	0.44698614660338903
136	0x3fd4e5230006e0b5	0.3264853954565397
137	0xbfb362cf9fc7df6c	-0.07572648669144905
138	0xbfca80a2a445c227	-0.20705063840024815
139	0xbfd516fc7b050080	-0.32952796949030727
140	0xbfca114cce691414	-0.2036529548514926
141	0x3fd02996c5945608	0.2525383882033059
142	0xbfa62a3a8ab4dbd1	-0.043290929252570394
143	0x3fd0818cfb0a4bf6	0.2579071475567497
144	0x3fd7a9530c3d5e71	0.3697097415474451
145	0x3fc12d3d1a7e12db	0.1341930751188077
146	0xbfcfabd8ffb4f766	-0.2474318741387222
147	0xbfe587d751d28150	-0.6728321645823971
148	0x3fe1dbe8a12f5fad	0.5580943248887614
149	0xbfa13f11c993462a	-0.033684306961401525
150	0xbfba383e3299ea5f	-0.1024206994569936
151	0xbfd16aa711c0a60f	-0.2721345589985455
152	0xbfdf064411c7ec84	-0.48475743996068155
153	0xbfa2f47709f16877	-0.03702136989950671
154	0xbfa175008e0bb25e	-0.034095780696451014
155	0xbfcfefa2f357214a	-0.24950062639096365
156	0x3fb939f8411efea5	0.09854079809064815
157	0x3fd1c9b65f11e9ae	0.2779365471284575
158	0x3fc65d6b6b5aa20f	0.17472594015022522
159	0xbfda1ab2a9dc27f7	-0.40787951076401846
160	0x3fb363d2f87b00db	0.07574194494646085
161	0xbfc1f00388bd83f3	-0.14013714005253028
162	0xbfc9a2bae1a3358b	-0.2002786256547718
163	0xbfd4a6485602ba3d	-0.3226490821788593
164	0x3fd22db45080baeb	0.2840395723496118
165	0x3fe2c6f3ec09b6a3	0.586786232959373
166	0xbfb2b6444b96fd36	-0.07309367032484179
167	0xbfb154f924622881	-0.06770283830897662
168	0xbfae00d69cd3c3b3	-0.058600145954080494
169	0xbfc10542a93ef69c	-0.13297303451502251
170	0x3fbe90259f7b1128	0.11938700812885783
171	0x3fcf831ca2a9c2e5	0.24618871634040498
172	0xbfce47d84f53e193	-0.2365675341932386
173	0x3fcb5dc1bc13cc59	0.2137987297388431
174	0x3fe2e2e3cfac8c66	0.5901965194829131
175	0xbfc1231af72d753a	-0.13388382977692875
176	0xbfccb1f059e48bfc	-0.224180263417196
177	0x3fa57b12ef4a1806	0.04195460482610262
178	0xbfaea39e9837a185	-0.059842067795957944
179	0x3fb3c1a2537db060	0.07717337168077298
180	0xbfc60ebc19d943de	-0.17232466947692066
181	0x3fb49a8fd31fa136	0.08048342613586076
182	0x3fc1bfa5f9f1910d	0.1386611433437185
183	0xbfe50d54652ef6ae	-0.6578771568526542
184	0xbfbca13588796b5c	-0.11183485586063341
185	0xbfd25e6fae1c745d	-0.2870139313034253
186	0x3fdafd496197720a	0.42170938997676954
187	0x3fc6866e8987e064	0.1759775325333549
188	0x3fb0bd214ccb1cc2	0.0653858959659486
189	0xbfe43faf89430d90	-0.6327741318604456
190	0xbfe1b838be29a1bf	-0.5537379945863491
191	0x3fc56973a6acd839	0.16728063238559956
192	0xbfc3871d2524a906	-0.1525608474124242
193	0xbfdf75a0664a5060	-0.4915543555191615
194	0x3fd561dc9473eaaf	0.334098000501096
195	0xbfc25831ac8f60d7	-0.14331646848473298
196	0x3fa675cb0d95408d	0.043867440612872156
197	0x3fae01af4cf102e0	0.058606603758112774
198	0x3fc10884b0041f03	0.13307245821510358
199	0x3fc051ac6e55a549	0.12749247920445786
200	0xbfb8a1b11c22729d	-0.09621722161177577
201	0x3fd382bd63d77896	0.30485472440876416
202	0xbfe0d1a948a1e8d7	-0.525593416080734
203	0x3fe20d5ce8eef3bb	0.5641312169533345
204	0x3fcc430c430a8aef	0.22079613946433294
205	0x3fd6e1050ad29eaa	0.35748411232860156
206	0x3fdccc259f55522c	0.44996014175311205
207	0x3fd70311aadd6fd0	0.3595623177150147
208	0x3fca0e1c8d15153d	0.20355564965044862
209	0x3fccf929b736411a	0.22635384984870016
210	0xbf98895e4b7c186f	-0.023961518628333452
211	0x3fbf4ebe9b8fd6e6	0.1222952966489533
212	0xbfcea40862a2eb1c	-0.2393808824179694
213	0xbfaf720a18ec3e18	-0.061416926901184776
214	0xbfc1501c38a349b8	-0.1352572704841586
215	0x3fcd96d6a53b8d34	0.23116572444914996
216	0xbfd6b9702ceb3531	-0.3550682486209836
217	0xbfc35d68bdd54b29	-0.15128812092970037
218	0xbf77cd936a7d3e9f	-0.005811286777159501
219	0xbfc8d803a40323bc	-0.19409223087703065
220	0x3fda0c8de06cb869	0.40701624790643237
221	0x3fc2ad37ca7bf1b2	0.14591119181558337
222	0xbfc67c8c7a563cab	-0.17567592595557832
223	0xbf96e3f004bb10a5	-0.022353887833347703
224	0x3fc06d49da18fb31	0.1283352198533634
225	0x3fcd435cf70674c4	0.22861826001909524
226	0x3f9bdd9996c7abc2	0.027212524249914834
227	0xbf972f02a0552b70	-0.02264026740639785
228	0x3f89b131f704061a	0.012545004225560642
229	0x3fc115c2484bd03b	0.1334765294083143
230	0xbf990fe8586a220a	-0.02447474517478735
231	0xbfceaf988a7249da	-0.2397337604530339
232	0x3fd71a1730f041d0	0.3609674432673531
233	0x3fb7b1e4bff00676	0.09255819021202591
234	0xbfb0f0c7fb4fb776	-0.06617402921230373
235	0x3fc00f523030d063	0.12546756127415212
236	0xbf8131a4c09880b8	-0.008395468833498718
237	0xbf54ee111e2d01b7	-0.0012774626890888882
238	0xbfc02974de9a85a0	-0.1262651526385925
239	0xbfd09f2c69c8008a	-0.2597151787777042
240	0x3fd2e755e309fda2	0.2953695981195442
241	0x3fa8e5f270d68d01	0.04862935664575652
242	0x3fbe9cc95376f469	0.11957987106048197
243	0x3fd4467c5958214b	0.316802108049633
244	0xbf9cf88f1fdd5ead	-0.02829192764269688
245	0xbfd976d7713ba1b5	-0.3978785138883965
246	0x3fa750512a388680	0.04553464546576169
247	0xbfce8f5c6d3d44d6	-0.23875003179504145
248	0xbfd10f7ccb4ef5a5	-0.2665702805932944
249	0xbfb77b349e5bfa91	-0.09172371736711173
250	0x3fb7785cf2d54deb	0.09168034485383429
251	0x3fac87d34d412365	0.055723765545343786
252	0xbfbae6646f018f23	-0.105078007794472
253	0x3fc445561907fd87	0.1583659765455929
254	0x3fce0cc8f66423d7	0.23476516753024043
255	0xbfafdec6506b6912	-0.06224651080784062

att1.linear_q.bias f8 [16]
0	0x0000000000000000	0.0
1	0x0000000000000000	0.0
2	0x0000000000000000	0.0
3	0x0000000000000000	0.0
4	0x0000000000000000	0.0
5	0x0000000000000000	0.0
6	0x0000000000000000	0.0
7	0x0000000000000000	0.0
8	0x0000000000000000	0.0
9	0x0000000000000000	0.0
10	0x0000000000000000	0.0
11	0x0000000000000000	0.0
12	0x0000000000000000	0.0
13	0x0000000000000000	0.0
14	0x0000000000000000	0.0
15	0x0000000000000000	0.0

att1.linear_k.weight f8 [16, 16]
0	0x3fc1c23e0e3536cd	0.138740307748256
1	0x3fb9c4651fbd9f7f	0.10065300011558341
2	0xbfd6fdb4cd1e7c7d	-0.3592350009075245
3	0xbfafb738aa2e214a	-0.06194474294085468
4	0x3fd6c5421427c4ef	0.35578968017860196
5	0xbfbc9eb11ae66a9f	-0.11179644495715955
6	0xbfcfb62a09b91cbf	-0.24774671053658
7	0x3fbf4f6ea80a26e5	0.12230578997164405
8	0x3f9af3d7df1b15f6	0.02632081317167053
9	0x3fe501caa286aea8	0.6564686941469136
10	0xbfb56f0b23b5d75a	-0.08372563955148618
11	0xbfc9a69c9e8c96f0	-0.2003970884481343
12	0x3fd281bcbe6d9cce	0.2891685351991783
13	0x3fc6bb1aeee880cb	0.17758499780121037
14	0xbfc1b32ee74d4326	-0.138280737819991
15	0x3fdfb74180db9212	0.4955600508094743
16	0x3fd1649cbf508beb	0.27176588709897825
17	0x3fd1e406e69bdf7f	0.27954266090772956
18	0xbfb1da811b41c53e	-0.0697403613610463
19	0xbfc10942456b6cd8	-0.13309505834226942
20	0x3fc32c065f7e5c2f	0.14978103316090727
21	0xbfd94e2e38d24b79	-0.39539676236125093
22	0x3faec2a4222fa34a	0.06007874409971821
23	0xbfd3159b67a54887	-0.2981937896885331
24	0x3fd0c112a4cb9d81	0.26178423016832403
25	0xbf926a2a73f8806d	-0.017983115509310133
26	0xbfd5a17f3e7a3408	-0.33798199750236835
27	0xbfc7d33ead7d9e09	-0.18613418074822644
28	0x3fc08994d7d26f10	0.1291986516779322
29	0x3fa20c2f0040efe0	0.035249203473057156
30	0xbf56b169dfb325ec	-0.0013850721286864333
31	0xbfbac3fc06bbaf4a	-0.10455298580535302
32	0xbfc0658d6fc1c93b	-0.12809913594134933
33	0x3fda254bc6a5cf71	0.4085263671797668
34	0x3fc2a38df68892ba	0.14561628854530345
35	0x3fdd85545736b4dc	0.46126278416597954
36	0x3fbff9dd2303685d	0.12490636925522965
37	0x3fd0b6edceb199bd	0.26116509613930444
38	0x3fdb9d86749e6f70	0.43148957623065254
39	0xbfbc37387240b789	-0.11021759786009801
40	0xbfd7f4425d1eaf21	-0.37428340047584824
41	0x3f6e2459d238d0f1	0.003679442817679506
42	0xbfde4201fce75651	-0.47277879426596764
43	0xbf989c88f2667e95	-0.024034633440918347
44	0xbfb97e9d1ab72c66	-0.09958822157129674
45	0xbfd1c47c8bde798e	-0.27761758479200516
46	0xbfc5f4237ba6839f	-0.17151301896686008
47	0x3f8613f5b61761d3	0.010780257815825067
48	0x3f935ba785f45751	0.01890432124226688
49	0xbfdc6fc8e7d48cb6	-0.4443228019683362
50	0xbfc122d8a14c6a5a	-0.1338759219732591
51	0x3fcd08b8eb4f359e	0.226828684708761
52	0x3fc8e2f659e548ea	0.19442634000240072
53	0x3fcd9038021383bf	0.23096370793703433
54	0x3fcdce05d65ace3e	0.23284981695688772
55	0xbfd151c374efe647	-0.27061544818534283
56	0xbfb4171a0046fa66	-0.07847750193375588
57	0x3fd9fa8091e92ff1	0.40591444253072867
58	0x3f6428d45a0d5d03	0.002460875272315756
59	0xbfc4012215e92512	-0.1562845808969447
60	0x3fbaf12ff771558c	0.10524272719461275
61	0xbfd202424675901b	-0.2813878715589923
62	0xbfc19e08c3381716	-0.13763532192404487
63	0x3fa77ea61dfbda1e	0.04588812938702723
64	0x3fcdaae5e1bd652c	0.23177789232685464
65	0xbfc97e0fffa9e499	-0.19915962203575502
66	0xbf969062d392ed1b	-0.0220351640352706
67	0x3fc81f7a849575ae	0.1884606501943557
68	0xbf9ddcd89d9f6aa7	-0.029162773724105275
69	0xbfb1443908e7651d	-0.06744724719409985
70	0x3fe8fd51eee4dde3	0.7809228578470847
71	0xbfcadc6146581c91	-0.20985046324515058
72	0x3fce778f5f933131	0.23802368323084402
73	0xbfc880c73b288f1c	-0.19143000019641299
74	0xbf9c40a125145966	-0.02759029187026254
75	0xbfc44a0eb37cfd1a	-0.15851005329202722
76	0x3f91d81731abcc3c	0.01742588272732014
77	0x3f90d1d56b2a4ad6	0.016425451913685794
78	0x3fba81f4a3d8de05	0.10354546547102224
79	0xbfd3013da4e4e6e3	-0.2969507322592177
80	0x3fc8bd3b6bdac7ce	0.19327490583742563
81	0xbfd5abe350ae6cc4	-0.338616207876566
82	0x3fc196c36bade143	0.1374134326722559
83	0xbfbbd02f51ba2b6b	-0.10864539857190685
84	0x3fbea3233fcf99d7	0.11967678363689714
85	0x3fd2124fc9d1b7c3	0.2823676558390355
86	0x3fcc27dd12912d60	0.21996653944584477
87	0xbf92ec4cdf5ea3cc	-0.018479539044765222
88	0x3fd7e9607f9497b5	0.3736191984083875
89	0xbfd95734a14929aa	-0.39594760656896233
90	0x3fbfa0ad8322b861	0.12354549838593833
91	0x3fc2974854e18484	0.14524177689148499
92	0xbfc92d754a0c58b8	-0.19669977298389596
93	0xbfa1eee0b73c1142	-0.035025617949971735
94	0xbfc1de44b0864614	-0.13959559077606853
95	0x3fd195f8a7196cae	0.27477852171223105
96	0xbfa2894c8e2d75ea	-0.0362037585789315
97	0x3fe4dbe0e7c2df26	0.651840641649845
98	0x3fb177fceadbd9e4	0.06823712095124496
99	0x3f91c7d2ef2fda2c	0.01736383042222138
100	0x3fb1bbaa55515c0b	0.0692697962089001
101	0x3fa57618ebb8b9cf	0.04191663625202901
102	0x3fb256c0d969bd32	0.07163625057159065
103	0xbfbcc5070906ee3f	-0.11238140077960511
104	0xbfd3e4fd3f5041ce	-0.31085139449080834
105	0x3f9b3ed4a1a02a1c	0.02660686718449244
106	0x3f820781c426cabf	0.008803380774087597
107	0xbfd1aa5d817f707d	-0.27602327009459043
108	0xbfa05f1870be7e67	-0.03197552086134863
109	0x3fd639cdc8b28e5d	0.3472780666290641
110	0x3fd0005a3115d362	0.2500215033863268
111	0xbfd1139d34b47cf2	-0.2668221487710546
112	0xbf05989d59cb6f5c	-4.1191389049648474e-05
113	0xbfc3614f87b24976	-0.15140718580057538
114	0x3fb6e0a14a03a433	0.0893650823305883
115	0x3fb271d1cb744ec4	0.07204924790522244
116	0x3f9ee9564d6e128d	0.030186985469770767
117	0x3f980788d854fccc	0.023466242030960413
118	0x3facde8c660e076f	0.05638540979181427
119	0xbf919c262b7f1a72	-0.01719722404939223
120	0x3fc8db61b8319d12	0.19419499868238482
121	0xbfb9174de2a88ffa	-0.09801184447911729
122	0x3f95decbb7147871	0.021357710885347495
123	0x3fc113073385dc1e	0.13339319244161713
124	0x3fc3950c6dd1cc74	0.15298610079080144
125	0xbfb2ccae91cb840d	-0.07343569812248081
126	0xbfd0da71f7e8aef5	-0.2633328362451118
127	0xbfa790237c995e5f	-0.04602156539902746
128	0xbfadef923c32414a	-0.05846840843981001
129	0x3fd7f0cd87045536	0.37407243905302623
130	0x3f9e9b088c33317f	0.029888280446173972
131	0xbfa0731d0c55b458	-0.032128246074400735
132	0xbfc2a46461fb54d8	-0.14564184936776914
133	0xbfc86d748c988a8a	-0.19084030976326388
134	0xbfd54cf4fd1cb5b0	-0.3328220817373575
135	0xbfd64de2183016f3	-0.34850361215681785
136	0xbfddf095e587c339	-0.46780917563505714
137	0x3fe135bb6c9f903f	0.5378090974377371
138	0xbfd4f7a823f2f000	-0.32761577139513065
139	0xbfc5850134d09dd5	-0.16812148169377275
140	0x3fb4fd3f60c1fd97	0.08198925125360855
141	0xbfd6ff7e225938cb	-0.3593440375742715
142	0x3fb75752b5928178	0.09117619450490178
143	0xbfc12ecb91ae6a0a	-0.13424057591767308
144	0x3fbdc3263ce6eab0	0.11625899302354514
145	0xbfc091e1ae6e2135	-0.1294519521436627
146	0xbfdb2c2815f2a378	-0.42457010405865203
147	0x3fd6a1cd137308b0	0.35362555407858576
148	0x3fe419960354d758	0.6281232895914668
149	0x3f8786936dc482bc	0.01148715189680282
150	0x3fd1c9d4d342b85e	0.2779438078968094
151	0xbfd39ea95e87a745	-0.30655893546519436
152	0xbfaa0d57fd7f5fd2	-0.050883054441953526
153	0xbfc0055b04bd0293	-0.12516343814242656
154	0xbfcdeb73937ea4ae	-0.23374790861024536
155	0xbfc67a47a58a4e5e	-0.17560668547649788
156	0x3fdfde94b535bd49	0.4979602594020958
157	0x3fc7633128412ff0	0.1827146002345894
158	0xbfddf669d3beed50	-0.4681648795919573
159	0x3fb6b9a37845659e	0.08877011953645428
160	0xbfc9b2287c297767	-0.20074945509525863
161	0xbfe14830014c8bea	-0.5400619531031883
162	0x3fc6f3c163dae46f	0.17931382537588855
163	0xbfc8dbcbd015fdac	-0.1942076459927028
164	0x3fda029c5f14ee6c	0.4064093521626322
165	0x3f90f8bbbc46fdcf	0.016573842398200086
166	0x3fc09381acf1645e	0.12950154251555807
167	0x3fc8425f07dbfebc	0.189525488698555
168	0x3fbc5cbd6663f0f7	0.11079009771123426
169	0xbfd61614dbf19a9d	-0.34509774664767595
170	0xbfad5579368f2666	-0.05729273596768962
171	0xbfdbf742c020c68f	-0.43696659815314204
172	0xbfcdbad02741f752	-0.2322635833442584
173	0xbfd82e1bb6a551b1	-0.37781422459127173
174	0x3f895f921c3495cf	0.012389317975769835
175	0xbfc7875c6f5ef9b1	-0.18381839216267573
176	0x3fba9a5a166f0329	0.10391772315689408
177	0xbfb0f7b1b936e95b	-0.06627951404417358
178	0x3fd82f7d30f6e584	0.3778985002678257
179	0x3fb9cbf5cb54ea0a	0.10076843465950716
180	0xbf75a13d5f75dc90	-0.005280723321781214
181	0xbfddba8af4722c81	-0.46451066848448624
182	0xbfc40085fe3b882b	-0.15626597322176514
183	0x3fa8a4fe8882acb6	0.048133806384919195
184	0xbfd66605bb669dbc	-0.34997695256103234
185	0xbfd2795440ed3ad5	-0.28865534153457634
186	0x3fd240dc77266602	0.28520881305448154
187	0xbf7764e57705512e	-0.0057114566300991276
188	0x3fe3998704fa4d81	0.6124911401006302
189	0x3fd9afa6bbbc4872	0.40134590467017184
190	0xbfcc4ac8e40a2ba7	-0.22103224882843373
191	0x3fc14fcfbcc9bcc7	0.13524815290609224
192	0xbfbfdfe0e7a3abd3	-0.12450986533410395
193	0x3fc823a706f9b75e	0.18858802643392897
194	0xbfcf72d654e2b0aa	-0.24569205422210888
195	0x3fbe4221fc386f89	0.11819660575605274
196	0x3fc65b0181aeed48	0.17465227920716075
197	0xbfd1a5d911018977	-0.2757475534509903
198	0x3fd0abf46995cb02	0.2604952841858649
199	0x3fc56ee9e8fccae3	0.16744731785146091
200	0x3fb966a9d22fd636	0.09922276860728449
201	0x3fd153c3266f4e29	0.270737445386859
202	0xbfc6b51bf44b2536	-0.17740201404948558
203	0x3fc9693986e868e5	0.19852370345399276
204	0xbfdeee5178b91d5c	-0.4832957915245595
205	0x3fcd22ea5fadb37e	0.2276280371837877
206	0xbfde0393c23d11b2	-0.4689683338986256
207	0x3fd195cae2a67092	0.2747676099186346
208	0xbfd415ad40f2eb77	-0.3138230451838164
209	0xbfe14d1de8249010	-0.5406636747397915
210	0xbfa70fcbf180c23f	-0.045042393904058724
211	0xbfc6ca9555ecbd1e	-0.17805735297722775
212	0x3fabea3bcd82b90d	0.05452143558192022
213	0x3fd05b7af65daf44	0.25558351573157645
214	0x3fe049c60589387a	0.5090055568814613
215	0xbfe1e4450ff6d307	-0.5591149627494766
216	0x3fa823ca91e9b9c1	0.04714806586422383
217	0xbfda9f06ca8c1af4	-0.41595620899208474
218	0x3fb363ee554c5f94	0.07574357588270991
219	0xbfcc703c56fbb2c2	-0.22217516181208025
220	0x3fc4249ef113a7b0	0.15736758014037155
221	0xbfb753192262ab3e	-0.09111172761428762
222	0xbfc336ae5aa825e5	-0.15010623385050717
223	0x3fd7ecd2c92651c2	0.37382955211185387
224	0xbfca129a410ed7f8	-0.2036927049318249
225	0xbfcb65350a00e9d9	-0.21402609814124565
226	0x3fc346f39036de99	0.1506027654811433
227	0x3fc9870a63e98a86	0.19943361166504675
228	0xbfcd91b49d9d7ccf	-0.2310090798955344
229	0x3fbc9809cb640161	0.11169491973487801
230	0x3fc29e138fe6f90f	0.14544910932995278
231	0xbfd33fd818080434	-0.3007717356377413
232	0x3fc086ede588dc07	0.12911771495575428
233	0xbfd53fd2c159c0f1	-0.3320204628171402
234	0x3fbffb53205b6444	0.12492866077390469
235	0xbfab33d4dd3710bb	-0.05312981796626689
236	0xbfd8d32b2b43ba4c	-0.3878887102609141
237	0x3fe84e1e3fc1dc4b	0.7595359082469114
238	0x3fd1975a9fec954f	0.2748629152068433
239	0x3f94f761d5b6941a	0.020474938076990502
240	0x3f7bf49279fadcf3	0.006825039075628358
241	0xbfd2d7a5bdf5f163	-0.2944120745740035
242	0x3fc11412ccca46d0	0.13342509269255354
243	0x3fa8b65c580bcb64	0.048266301868259004
244	0x3fda330f9e3dc09c	0.40936651662105716
245	0xbfc70be23fd298ba	-0.18005016437854754
246	0x3fb65f77d5b514fa	0.08739422767128593
247	0x3fa298a8dcb6c4f3	0.036320950453395805
248	0xbfd0cd15808d3496	-0.262517333544403
249	0xbfdcb1dc531f7e2a	-0.4483557521579963
250	0x3fab73350f24dbb2	0.05361333665717129
251	0xbfc42c563fb75185	-0.15760305510651676
252	0xbf954867a4d3ad4c	-0.02078401511691412
253	0x3fd8146b56979d32	0.37624629455827396
254	0x3f9001ab97fcede6	0.015631371642696033
255	0x3fca0fc6e10ddd6c	0.20360647191021586

att1.linear_k.bias f8 [16]
0	0x0000000000000000	0.0
1	0x0000000000000000	0.0
2	0x0000000000000000	0.0
3	0x0000000000000000	0.0
4	0x0000000000000000	0.0
5	0x0000000000000000	0.0
6	0x0000000000000000	0.0
7	0x0000000000000000	0.0
8	0x0000000000000000	0.0
9	0x0000000000000000	0.0
10	0x0000000000000000	0.0
11	0x0000000000000000	0.0
12	0x0000000000000000	0.0
13	0x0000000000000000	0.0
14	0x0000000000000000	0.0
15	0x0000000000000000	0.0
